…
    (3): Conv2d(64, 128, kernel_size=(3, 3), stride=(1, 1), padding=(1, 1))
    (4): ReLU(inplace)
    (5): MaxPool2d(kernel_size=2, stride=2, padding=0, dilation=1, ceil_mode=False)
  )
  (fc_seqn): Sequential(
    (0): Linear(in_features=8192, out_features=1000, bias=True)
    (1): ReLU(inplace)
    (2): Linear(in_features=1000, out_features=4, bias=True)
  )
)



a summary of input/output for the model:
----------------------------------------------------------------
        Layer (type)               Output Shape         Param #
================================================================
            Conv2d-1           [-1, 64, 32, 32]           1,792
              ReLU-2           [-1, 64, 32, 32]               0
         MaxPool2d-3           [-1, 64, 16, 16]               0
            Conv2d-4          [-1, 128, 16, 16]          73,856
              ReLU-5          [-1, 128, 16, 16]               0
         MaxPool2d-6            [-1, 128, 8, 8]               0
            Linear-7                 [-1, 1000]       8,193,000
              ReLU-8                 [-1, 1000]               0
            Linear-9                    [-1, 4]           4,004
================================================================
Total params: 8,272,652
Trainable params: 8,272,652
Non-trainable params: 0
----------------------------------------------------------------
Input size (MB): 0.01
Forward/backward pass size (MB): 1.70
Params size (MB): 31.56
Estimated Total Size (MB): 33.27
----------------------------------------------------------------
{0: 'rectangle', 1: 'triangle', 2: 'disk', 3: 'oval', 4: 'star'}
…
